…
atch, and often results in better performance, especially for datasets similar to the one used for pre-training.</p> <p>PyTorch's <code>torchvision</code> package  provides multiple pre-trained models. You can find the full list here. We will use ResNet18 as an example.</p> <pre><code>import torch\nimport torchvision.models as models\n\n# Load pre-trained ResNet18\nresnet18 = models.resnet18(pretrained=True)\n\n# For inference\nresnet18.eval()\ninput_tensor = torch.randn(1, 3, 224, 224)\noutput = resnet18(input_tensor)\n\n# Print the model architecture\nprint(resnet18)\n\n# ResNet(\n#   (conv1): Conv2d(3, 64, kernel_size=(7, 7), stride=(2, 2), padding=(3, 3), bias=False)\n#   (bn1): BatchNorm2d(64, eps=1e-05, momentum=0.1, affine=True, track_running_stats=True)\n#   (relu): ReLU(inplace=True)\n#   (maxpool): MaxPool2d(kernel_size=3, stride=2, padding=1, dilation=1, ceil_mode=False)\n#   (layer1): Sequential(\n#     (0): BasicBlock(\n#       (conv1): Conv2d(64, 64, kernel_size=(3, 3), stride=(1, 1), padding=(1, 1), bias=False)\n#       (bn1): BatchNorm2d(64, eps=1e-05, momentum=0.1, affine=True, track_running_stats=True)\n#       (relu): ReLU(inplace=True)\n#       (conv2): Conv2d(64, 64, kernel_size=(3, 3), stride=(1, 1), padding=(1, 1), bias=False)\n#       (bn2): BatchNorm2d(64, eps=1e-05, momentum=0.1, affine=True, track_running_stats=True)\n#     )\n#     (1): BasicBlock(\n#       (conv1): Conv2d(64, 64, kernel_size=(3, 3), stride=(1, 1), padding=(1, 1), bias=False)\n#       (bn1): BatchNorm2d(64, eps=1e-05, momentum=0.1, affine=True, track_running_stats=True)\n#       (relu): ReLU(inplace=True)\n#       (conv2): Conv2d(64, 64, kernel_size=(3, 3), stride=(1, 1), padding=(1, 1), bias=False)\n#       (bn2): BatchNorm2d(64, eps=1e-05, momentum=0.1, affine=True, track_running_stats=True)\n#     )\n#   )\n#   (layer2): Sequential(\n#     (0): BasicBlock(\n#       (conv1): Conv2d(64, 128, kernel_size=(3, 3), stride=(2, 2), padding=(1, 1), bias=False)\n#       (bn1): BatchNorm2d(128, eps=1e-05, momentum=0.1, affine=True, track_running_stats=True)\n# ...\n#   )\n#   (avgpool): AdaptiveAvgPool2d(output_size=(1, 1))\n#   (fc): Linear(in_features=512, out_features=1000, bias=True)\n# )\n</code></pre> <p>Once you print the model architecture, you can see the final fully connected layer is a linear layer with 1000 output features. </p>"},{"location":"chapter_neural_networks/fine_tuning/#fine-tuning-last-layer","title":"Fine-tuning last layer","text":"<p>To fine-tune the pre-trained ResNet on a new task, with new number of classes
…
